reid_osnet_x025_market1501.onnx (onnx, 843254 bytes, 244 tensors)

1048 f4 [16, 3, 7, 7]
0.00079982704 -0.0005598639 -0.0026778555 0.004429211 0.004843831 -0.004656829 -0.0038438637 -0.00053510204
-0.0016801538 -0.0032068782 0.0069973 0.009052799 -0.0028446896 -0.0030458514 -0.004145327 -0.0041235895
-0.0031229663 0.012786426 0.013554734 -0.0030772162 -0.0054593626 0.0020854268 0.0013649807 0.0047913236
0.02584646 0.026826283 0.005832179 0.0028176457 -0.0015621247 -0.0012559182 0.0028176336 0.017245749
0.018277584 0.0035675694 0.0014618925 -6.368406e-05 -0.0017239205 -0.0010355831 0.0048713014 0.0063773603
-0.0022704569 -0.0010393197 0.0045014466 0.00037045358 -0.00055488234 0.0031388942 0.003366334 -0.0032366998
0.00073384424 -0.000103632316 -0.0006534493 -0.0012236785 0.005726438 0.006471552 -1.7611661e-05 0.0017911159
0.0018648814 0.0016464989 0.0016797635 0.009687707 0.01188567 0.0049796654 0.0049980707 0.00050409173
0.0008954848 0.003196255 0.016503243 0.017017536 0.0054338314 0.0035716346 0.0033682317 0.005049843
0.008191842 0.026963817 0.026403021 0.009117338 0.007962434 0.0004940661 0.002864095 0.0076798205
0.019638961 0.01993713 0.008032811 0.0066141384 0.0016812845 0.002097778 0.0043271747 0.008387445
0.009884332 0.0026526856 0.0029440904 0.0052759126 0.002190193 0.0021924553 0.004946143 0.0049492735
8.833595e-05 0.0029543529 -0.0009795901 -0.0030661218 -0.0057912823 0.0021581969 0.0024423592 -0.0049113454
-0.0035930083 8.156563e-05 -0.001019603 -0.002541268 0.008176682 0.009680936 -0.00030780013 -0.0019699242
-0.0017118002 -0.0019589486 -0.0002881621 0.016026592 0.017211394 0.0016551681 -0.0035540808 -0.0014419686
-0.0006217753 0.0035416458 0.022634197 0.022875432 0.0041879425 -0.0008070862 -0.004223164 -0.0026619714
0.0026985852 0.014008696 0.014138125 0.0006922085 -0.002383188 -0.0070203403 -0.0068064104 -0.0068082847
-0.0038620976 -0.00341137 -0.010933504 -0.0106025245 -0.003007085 -0.00565766 -0.0072732824 -0.0065016276
-0.006884613 -0.011931161 -0.009904899 -0.0029554581 -0.00069157284 -0.0020922539 -0.002780044 -0.0012088976
-0.0017667647 -0.00059965666 0.002697867 0.0023697503 -0.0019167453 -0.0053797523 -0.0041720443 -0.0017539761
0.0026738585 0.00030020086 0.0006839187 -0.0056972257 -0.013532213 -0.015197734 -0.0064025386 -0.0005922731
-0.0014798223 -9.414943e-05 -0.007836845 -0.02061443 -0.021950528 -0.010883083 -0.0053491644 -0.0030608873
-0.0013807357 -0.007543748 -0.017156562 -0.017213289 -0.006438655 -0.004440743 0.0013706461 0.0035017084
0.0010531858 -0.001822747 -0.0026588796 0.0027963272 0.004093925 -0.0011688878 0.002520563 -0.0006982526
-0.0020673368 -0.0028133858 0.0016467978 0.005592206 -0.001340605 -0.0011789628 -0.0029375462 -0.00493232
-0.0028839568 -0.0030762781 -0.0021641129 0.0009175201 -0.0008468695 -0.0058177295 -0.011317633 -0.009728202
-0.005831413 -0.0020299284 -0.0009096131 -0.0010943359 -0.0082016485 -0.020081915 -0.023649193 -0.011673418
-0.00446668 -0.0020984022 -0.0008339655 -0.0105744 -0.031616744 -0.03449377 -0.018268695 -0.009167568
-0.0032814073 -0.0020234112 -0.0087102335 -0.024916306 -0.02688999 -0.012554349 -0.007610793 0.0037993074
0.0040451623 0.00034999225 -0.005143789 -0.007483319 -0.0016559397 0.0009492313 0.0021146997 0.0042880955
0.00067332265 -0.0030018399 -0.005280351 -0.0012807755 0.004070231 0.0034331442 0.003281793 0.0036446857
0.0047347858 0.0070718885 0.0071206326 0.008956831 0.004153987 0.0017675514 -0.00059489463 -0.0021367036
00000000: 7cab 513a d5c3 12ba f67e 2fbb ea22 913b
00000010: 00b9 9e3b 5098 98bb 55e9 7bbb 1746 0cba
00000020: 9b38 dcba 7d2a 52bb 9b49 e53b 3152 143c
00000030: f96d 3abb e89c 47bb 86d5 87bb 2d1f 87bb
00000040: aeaa 4cbb 287e 513c ad14 5e3c 1fab 49bb
00000050: 74e4 b2bb a8ab 083b 27e9 b23a 8900 9d3b
00000060: f5bb d33c cbc2 db3c dd1b bf3b 40a8 383b
00000070: 35c0 ccba 9f9d a4ba 0ca8 383b f546 8d3c
00000080: dfba 953c e2cd 693b f99c bf3a 1f8e 85b8
00000090: 2cf5 e1ba 67bc 87ba 709f 9f3b 2df9 d03b
000000a0: f2cb 14bb c839 88ba df80 933b 7039 c239
000000b0: 8675 11ba e8b5 4d3b b69d 5c3b d01e 54bb
000000c0: 745f 403a 2d55 d9b8 3d4c 2bba d663 a0ba
000000d0: d8a4 bb3b 500f d43b c1bc 93b7 e0c3 ea3a
000000e0: 096f f43a 56cf d73a 832b dc3a 30b9 1e3c
000000f0: 1dbc 423c 762c a33b dbc6 a33b 0625 043a
00000100: f8be 6a3a 4378 513b cf31 873c 5c68 8b3c
00000110: 480e b23b 1612 6a3b 8dbd 5c3b 2779 a53b
00000120: 1337 063c 39e3 dc3c 264b d83c e360 153c
00000130: de74 023c 3784 013a 8ab3 3b3b 01a7 fb3b
00000140: e3e1 a03c 3153 a33c 0d9c 033c 6abb d83b
00000150: 8c5e dc3a e07a 093b f9ca 8d3b 7e6b 093c
00000160: e5f1 213c aed8 2d3b a4f1 403b 90e1 ac3b
00000170: 5789 0f3b 4caf 0f3b 4113 a23b 842d a23b
00000180: 0141 b938 d19d 413b 9765 80ba fdf0 48bb
00000190: ccc4 bdbb 8970 0d3b fd0f 203b 5aef a0bb
000001a0: ad78 6bbb 370e ab38 33a4 85ba 678b 26bb
000001b0: 7df7 053c ca9c 1e3c 3c60 a1b9 d819 01bb
000001c0: 7c5e e0ba b461 00bb 7614 97b9 334a 833c
000001d0: e9fe 8c3c 3af2 d83a 95eb 68bb 7000 bdba
000001e0: a2fe 22ba f51a 683b 5a6b b93c 4265 bb3c
000001f0: 023b 893b a392 53ba 7862 8abb 7874 2ebb
00000200: bfda 303b bb84 653c 98a3 673c 5375 353a
00000210: 432f 1cbb e20a e6bb 4f08 dfbb 0818 dfbb
00000220: 3f1b 7dbb 4b91 5fbb 7122 33bc 36b6 2dbc
00000230: 8412 45bb e463 b9bb b754 eebb 9b0b d5bb
00000240: 5298 e1bb eb7a 43bc 2848 22bc 5cb0 41bb
00000250: ab4a 35ba 321e 09bb 6631 36bb df73 9eba
00000260: c992 e7ba 4732 1dba b3ce 303b d04d 1b3b
00000270: 4d3b fbba a248 b0bb a5b5 88bb ace5 e5ba
00000280: e73b 2f3b 4764 9d39 0249 333a cbaf babb
00000290: 37b6 5dbc ebff 78bc 63cc d1bb c642 1bba
000002a0: 99f6 c1ba 1772 c5b8 1c66 00bc 98df a8bc
000002b0: 98d1 b3bc f54e 32bc 0b48 afbb 2b99 48bb
000002c0: cdf9 b4ba 8b31 f7bb eb8b 8cbc e202 8dbc
000002d0: 5afb d2bb a783 91bb 40a7 b33a eb7c 653b
000002e0: 0d0b 8a3a 3ee9 eeba 9940 2ebb 9642 373b
000002f0: 5526 863b 5e35 99ba 0830 253b f00a 37ba
00000300: 287c 07bb c860 38bb 5dd9 d73a d33e b73b
00000310: 3db7 afba 6d87 9aba d983 40bb 4d9f a1bb
00000320: c400 3dbb 629b 49bb cad3 0dbb bb85 703a
00000330: 7300 5eba a7a2 bebb 986d 39bc 0963 1fbc
00000340: 7015 bfbb 8c08 05bb 1a73 6eba d26f 8fba
00000350: 3560 06bc d482 a4bc f4bb c1bc dd41 3fbc
00000360: 3a5d 92bb 5985 09bb 7a9e 5aba 4040 2dbc
00000370: 8f80 01bd 5749 0dbd 3ba8 95bc 9133 16bc
00000380: e10c 57bb 359b 04bb 5eb5 0ebc 481d ccbc
00000390: 6548 dcbc c2b0 4dbc f663 f9bb cdfd 783b
000003a0: 488d 843b 2a7f b739 3b8d a8bb a136 f5bb
000003b0: 1e0c d9ba d6d5 783a c696 0a3b 2783 8c3b
000003c0: eb81 303a 84ba 44bb cb06 adbb b2df a7ba
000003d0: 935f 853b 9afe 603b 5a13 573b aedb 6e3b
000003e0: 4326 9b3b 4dbb e73b 3254 e93b acbf 123c
000003f0: 2b1e 883b 2fad e73a b4f2 1bba f007 0cbb

1049 f4 [16]
0.82287544 0.58033 0.3899588 0.18583947 0.059763573 0.43011498 0.050658867 -0.04148431
0.18189651 0.09486631 0.107305616 0.022706397 0.0927133 0.12805419 0.088548414 0.11788999
00000000: f7a7 523f 8290 143f aea8 c73e b44c 3e3e
00000010: a6ca 743d 0838 dc3e ac7f 4f3d 74eb 29bd
00000020: 1443 3a3e 4549 c23d 0cc3 db3d c402 ba3c
00000030: 78e0 bd3d a320 033e df58 b53d 4f70 f13d

1051 f4 [16, 16, 1, 1]
-0.036440335 -0.06991502 0.014763441 0.029347945 -0.05919773 -0.027603263 -0.053386565 -0.10135472
-0.023169782 -0.0020395503 -0.06761552 -0.0142721385 -0.3730321 -0.10960171 -0.033785302 0.04719275
0.097794645 -0.30554584 0.3326659 -0.33965257 -0.01349052 0.025766049 0.015425996 0.0013905207
0.19876143 -0.009543366 -0.0069649345 -0.02179683 0.0007090789 -0.008460813 -0.012538869 -0.032464016
-0.22001036 -0.19479127 0.009148675 0.38176593 0.011423923 0.19161843 0.06909054 -0.017115632
0.25807565 0.031441234 0.0039715245 -0.031706892 0.024365956 0.02156026 -0.006516603 -0.04034879
0.014207679 0.060192488 -0.10417384 0.008748942 -0.010815608 0.0053758523 0.021760738 -0.0530523
-0.04728583 -0.037600864 -0.013816018 -0.033812568 -0.0128731225 -0.095561005 0.020822437 0.014695566
-0.56646705 0.72343946 0.18178254 0.16455486 -0.058227412 -0.28892627 0.12518193 -0.022774162
0.0041530053 0.04712758 0.027819248 0.0448462 -0.0011807176 0.090801954 5.846285e-05 0.044516142
0.22236772 0.18059488 0.06897676 0.054710876 0.028090129 0.059104837 0.029579094 0.021916911
0.089601874 0.04009776 0.034268167 0.05524836 0.027815003 0.04279585 0.00369493 0.053979784
0.13523157 -0.19306447 -0.06831645 0.021099385 -0.021849873 0.4718072 -0.020312756 -0.011661349
-0.42001757 -4.312193e-05 -0.012926633 0.0054442473 0.0137480805 0.0037048042 0.0034960567 -0.01809754
0.2202066 0.044530824 0.057345293 -0.02405732 0.024288742 0.2730289 -0.07621449 0.04338344
-0.039246026 0.048405696 0.037057307 -0.01422765 -0.017795542 0.038692947 -0.0032973175 0.061891265
-0.5289288 0.6338263 0.18847765 -0.13075379 0.017558882 0.28776833 0.030639594 -0.045408692
-0.3730077 0.05846399 -0.0692324 -0.0050540743 0.0099447025 0.042885493 0.004625983 -0.03217972
-0.51175666 -0.38806945 -0.017850019 -0.11933825 -0.024537189 -0.023916118 -0.070585445 0.030935595
-0.09775649 -0.0035351 0.042725634 -0.012790585 0.0007017731 0.019337142 0.011147102 0.044323888
-0.5124417 -0.2882479 -0.017174449 0.056731023 -0.037533075 0.039575968 0.2074727 -0.026519472
0.004460633 -0.07682698 0.090062745 -0.033151142 -0.009060309 -0.083295725 0.054166913 -0.020738507
0.27271754 -0.2783115 -0.23946643 0.33783528 -0.024186904 -0.21883161 -0.013631254 0.007696742
0.21404476 -0.0076730084 -0.0068135355 -0.030722836 0.002557831 -0.005575048 0.025726667 -0.014071464
-0.23242894 0.09242169 0.006993465 0.11722424 0.0014429538 -0.11331364 -0.03545855 -0.029835463
0.1731049 -0.013745388 -0.012096638 -0.0036347548 0.038015433 -0.0061968723 -0.0031601528 -0.010285948
0.4426062 -0.007792939 -0.059915815 -0.06815795 -0.009802407 -0.17657834 -0.038218483 0.061725076
0.027294135 0.040610846 0.023301983 -0.11458424 -0.010937624 0.051584456 -0.015694994 -0.00026675375
-0.28404218 -0.25117385 0.029674444 0.017438684 -0.2697541 -0.025141517 0.031491917 -0.014659486
-0.013436061 -0.20768669 -0.057466596 0.050094716 0.06398768 0.069277726 -0.36764407 -0.08733542
0.21072146 0.031743687 -0.05036742 -0.025638381 -0.04047474 0.029627426 -0.03589992 -0.03347798
0.036588136 -0.12936975 -0.008147524 -0.05292789 -0.0071902405 -0.06636818 -0.0346759 0.038888477
00000000: 7642 15bd 9b2f 8fbd 5ce2 713c 1a6b f03c
00000010: 5279 72bd 3d20 e2bc dfab 5abd 1093 cfbd
00000020: 8ece bdbc faa9 05bb 017a 8abd b0d5 69bc
00000030: 10fe bebe dd76 e0bd 7562 0abd 2f4d 413d
00000040: 8f48 c83d 8170 9cbe 2f53 aa3e f1e6 adbe
00000050: 5807 5dbc 5213 d33c 51bd 7c3c 2242 b63a
00000060: 1e88 4b3e c75b 1cbc 1b3a e4bb 448f b2bc
00000070: 7be1 393a 399f 0abc d46f 4dbc fdf8 04bd
00000080: 654a 61be 5d77 47be 53e4 153c d376 c33e
00000090: 682b 3b3c 9f37 443e 577f 8d3d 1536 8cbc
000000a0: 7e22 843e 86c8 003d 9023 823b 16df 01bd
000000b0: 1d9b c73c 249f b03c 3a89 d5bb c644 25bd
000000c0: 53c7 683c 668c 763d 1859 d5bd b957 0f3c
000000d0: f333 31bc eb27 b03b 9343 b23c 5e4d 59bd
000000e0: c9ae 41bd 5d03 1abd 945c 62bc 0c7f 0abd
000000f0: cae9 52bc 7db5 c3bd d193 aa3c acc5 703c
00000100: fc03 11bf 5433 393f 3425 3a3e 1281 283e
00000110: de7f 6ebd 25ee 93be b12f 003e e190 babc
00000120: ef15 883b d908 413d 31e5 e33c a6b0 373d
00000130: 4fc2 9aba 60f6 b93d 0236 7538 8f56 363d
00000140: 5db4 633e dded 383e b043 8d3d 8318 603d
00000150: 451d e63c ea17 723d db4f f23c 188b b33c
00000160: 3081 b73d 8c3d 243d c75c 0c3d 1b4c 623d
00000170: 4adc e33c b44a 2f3d a426 723b e819 5d3d
00000180: 257a 0a3e b1b2 45be 7fe9 8bbd 9ed8 ac3c
00000190: 81fe b2bc b790 f13e f066 a6bc 3e0f 3fbc
000001a0: 8b0c d7be d2dd 34b8 3aca 53bc a865 b23b
000001b0: a13f 613c 4dcc 723b 191e 653b 4b41 94bc
000001c0: d77d 613e f465 363d e6e2 6a3d db13 c5bc
000001d0: 2ff9 c63c 72ca 8b3e 5816 9cbd d5b2 313d
000001e0: 71c0 20bd 0d45 463d 67c9 173d 171b 69bc
000001f0: f5c7 91bc 7f7c 1e3d cf17 58bb b281 7d3d
00000200: e167 07bf 7142 223f 4900 413e 52e4 05be
00000210: a5d7 8f3c 5f56 933e e3ff fa3c 77fe 39bd
00000220: defa bebe f077 6f3d b7c9 8dbd a69c a5bb
00000230: 1bef 223c b3a8 2f3d 8f95 973b e2ce 03bd
00000240: 7c02 03bf 0ab1 c6be 343a 92bc 9d67 f4bd
00000250: 3702 c9bc bceb c3bc 1a8f 90bd a56c fd3c
00000260: 8e34 c8bd 23ad 67bb 1301 2f3d 9a8f 51bc
00000270: 32f7 373a ed68 9e3c 56a2 363c f78c 353d
00000280: 612f 03bf 3b95 93be 6eb1 8cbc ca5e 683d
00000290: 48bc 19bd 691a 223d b973 543e 5d3f d9bc
000002a0: 802a 923b 7757 9dbd d172 b83d 7ec9 07bd
000002b0: b171 14bc f396 aabd 20de 5d3d cde3 a9bc
000002c0: a2a1 8b3e d87e 8ebe b036 75be bff8 ac3e
000002d0: 9d23 c6bc 6515 60be a055 5fbc f434 fc3b
000002e0: 8d2e 5b3e dc6d fbbb 1444 dfbb 75ae fbbc
000002f0: 48a1 273b e4ae b6bb bbc0 d23c ff8b 66bc
00000300: da01 6ebe 9547 bd3d 7029 e53b 4313 f03d
00000310: 7f21 bd3a fb10 e8bd fc3c 11bd 8069 f4bc
00000320: 6942 313e 5634 61bc fa30 46bc 1135 6ebb
00000330: 12b6 1b3d 220f cbbb 911a 4fbb 6586 28bc
00000340: 489d e23e e95b ffbb 496a 75bd 6596 8bbd
00000350: 469a 20bc f4d0 34be fc8a 1cbd 6fd3 7c3d
00000360: f397 df3c 8f57 263d cde3 be3c 24ab eabd
00000370: b833 33bc 394a 533d ca92 80bc 15db 8bb9
00000380: fa6d 91be dc99 80be d217 f33c 92db 8e3c
00000390: 361d 8abe 95f5 cdbc abfd 003d 572e 70bc
000003a0: ed22 5cbc d2ab 54be 1862 6bbd 1e30 4d3d
000003b0: f90b 833d 7be1 8d3d d83b bcbe eadc b2bd
000003c0: 5ec7 573e ab05 023d 114e 4ebd 9507 d2bc
000003d0: d7c8 25bd 37b5 f23c cb0b 13bd 3520 09bd
000003e0: 71dd 153d 8179 04be 317d 05bc eaca 58bd
000003f0: 1c9c ebbb 0aec 87bd 5108 0ebd 8649 1f3d

1052 f4 [16]
0.27499422 0.5226485 0.108023785 0.09879455 -0.84716797 -0.42002356 0.569761 -0.4814083
-0.5188895 0.8406688 0.48837984 0.38320568 0.39632225 -0.4542141 0.62551534 -0.1807003
00000000: 0bcc 8c3e 4bcc 053f 933b dd3d cc54 ca3d
00000010: 00e0 58bf 540d d7be dbdb 113f 267b f6be
00000020: f1d5 04bf 1236 573f ec0c fa3e 8933 c43e
00000030: c0ea ca3e c08e e8be c621 203f 8009 39be

1054 f4 [16, 1, 3, 3]
0.7189026 -0.06363063 0.736301 0.32207307 -3.3092031 -0.044864066 1.0983137 0.3457364
1.1245755 1.2084234 3.1146512 1.4329629 0.7234683 1.2486122 0.6297272 -2.180278
-4.511387 -2.7485356 0.0 0.0 -0.0 -0.0 0.0 0.0
-0.0 -0.0 -0.0 0.6821211 4.1478033 0.86971176 -0.3667414 -1.2278918
-0.379816 -0.011625147 -3.230469 -0.1520191 -0.12913601 -0.10083469 -0.16744672 0.29271182
0.4782648 0.46825776 -0.14155024 0.2912329 -0.10252783 -0.051987723 0.23836783 -0.2731044
0.24690747 0.39191684 0.10163354 0.3500099 0.674481 0.27914134 -0.0 -0.0
-0.0 -0.0 -0.0 0.0 0.0 -0.0 0.0 0.0
0.0 -0.0 -0.0 -0.0 0.0 -0.0 -0.0 0.0
0.89204997 0.17728648 -0.64544415 1.0885923 0.12318657 -0.976837 0.46144623 -0.15199712
-0.53481776 -2.8361526 0.052961428 -2.5935464 0.22798376 1.5818137 0.24675122 -2.9791553
-0.5803822 -2.7657723 0.7142518 0.7302601 0.7421149 0.11259833 -0.8714795 0.21980743
0.29110014 -0.3962722 0.12969911 -0.0 -0.0 -0.0 0.0 0.0
-0.0 0.0 -0.0 -0.0 0.18543272 0.0033225007 0.16346724 0.068233125
-0.23243147 0.042717576 0.18228549 -0.028897222 0.15518694 -0.40451196 0.19504566 -0.2448464
0.73056704 1.3352672 0.75424933 -0.24357338 0.26136708 -0.28306308 -7.0715446e-06 -2.3546914e-07
4.9056343e-06 -8.3416835e-06 -3.5722576e-06 1.149295e-06 -1.9148295e-06 2.4433923e-06 6.728381e-06 1.1940695
0.22229023 -1.4609189 1.6657271 0.20803064 -1.6938723 1.0792221 0.21569556 -1.2107114
00000000: 000a 383f c750 82bd 397e 3c3f c3e6 a43e
00000010: fcc9 53c0 62c3 37bd 8b95 8c3f 5d04 b13e
00000020: 17f2 8f3f 9ead 9a3f 7256 4740 546b b73f
00000030: 3835 393f 86d2 9f3f cd35 213f ad89 0bc0
00000040: 485d 90c0 02e8 2fc0 0000 0000 0000 0000
00000050: 0000 0080 0000 0080 0000 0000 0000 0000
00000060: 0000 0080 0000 0080 0000 0080 7d9f 2e3f
00000070: ceba 8440 6ea5 5e3f 87c5 bbbe 8f2b 9dbf
00000080: 3e77 c2be 6777 3ebc 01c0 4ec0 e5aa 1bbe
00000090: 3b3c 04be 6b82 cebd 2777 2bbe 53de 953e
000000a0: 20df f43e 7bbf ef3e 8cf2 10be 7b1c 953e
000000b0: 1cfa d1bd 14f1 54bd b216 743e 57d4 8bbe
000000c0: 50d5 7c3e 53a9 c83e 3f25 d03d 7f34 b33e
000000d0: c9aa 2c3f 9deb 8e3e 0000 0080 0000 0080
000000e0: 0000 0080 0000 0080 0000 0080 0000 0000
000000f0: 0000 0000 0000 0080 0000 0000 0000 0000
00000100: 0000 0000 0000 0080 0000 0080 0000 0080
00000110: 0000 0000 0000 0080 0000 0080 0000 0000
00000120: 635d 643f 968a 353e d43b 25bf fe56 8b3f
00000130: 3e49 fc3d fd11 7abf ae42 ec3e 22a5 1bbe
00000140: d1e9 08bf 8683 35c0 15ee 583d aafc 25c0
00000150: 9374 693e df78 ca3f 5aac 7c3e 7baa 3ec0
00000160: ee93 14bf 6a02 31c0 35d9 363f 53f2 3a3f
00000170: 3efb 3d3f f499 e63d 4819 5fbf 3315 613e
00000180: 140b 953e 31e4 cabe d8cf 043e 0000 0080
00000190: 0000 0080 0000 0080 0000 0000 0000 0000
000001a0: 0000 0080 0000 0000 0000 0080 0000 0080
000001b0: 13e2 3d3e 50be 593b f563 273e cfbd 8b3d
000001c0: 8402 6ebe a0f8 2e3d 0ca9 3a3e deb9 ecbc
000001d0: 53e9 1e3e 311c cfbe 0dba 473e 04b9 7abe
000001e0: 7106 3b3f 09ea aa3f 7c16 413f 4d6b 79be
000001f0: e8d1 853e a5ed 90be 1b48 edb6 44d5 7cb4
00000200: 149b a436 42f3 0bb7 ebba 6fb6 7a41 9a35
00000210: 8580 00b6 29f9 2336 5ac4 e136 45d7 983f
00000220: 0da0 633e 64ff babf 8c36 d53f fc05 553e
00000230: cfd0 d8bf f323 8a3f 4cdf 5c3e 97f8 9abf

1055 f4 [16]
0.054315787 -0.09735535 -8.32082e-06 0.18111877 0.06232173 0.05746162 -1.2380231e-31 -0.00043516714
-0.012531197 0.70676994 0.048564337 -2.027315e-39 0.024721902 0.025860729 -3.0106696e-07 -0.0031949747
00000000: 3b7a 5e3d 3e62 c7bd a699 0bb7 3377 393e
00000010: 1245 7f3d e05c 6b3d 60b4 208c 2527 e4b9
00000020: a64f 4dbc e0ee 343f 66eb 463d 5413 1680
00000030: 9685 ca3c e1d9 d33c 54a2 a1b4 c862 51bb

1057 f4 [16, 1, 3, 3]
0.47243595 -0.18068774 -0.14092055 2.4153402 -0.3508857 -1.657671 0.8561327 -0.3483109
-0.23726565 0.24724337 0.5606023 0.6876803 -0.12246494 -0.12259188 0.2973649 -0.5947116
-0.5757667 -0.1364525 -1.1855313 -0.6184687 0.11934474 -1.7205473 -0.87153405 0.27247733
-1.6732432 -0.70941013 -0.043450337 -0.1520374 -0.15958399 0.2299045 -0.08511515 -0.48162436
-0.08586765 -0.2477227 -0.45011708 -0.114826754 -0.15377682 -0.63720244 0.96585137 -2.3807924
0.7669931 4.240493 0.12102764 -0.69454753 0.022010442 0.26992026 0.9518939 0.045430906
1.3354793 0.5598032 -2.422812 0.35891464 0.40589902 -0.9267201 -0.060255744 -0.25172922
-0.12907663 -0.12982962 -0.33446497 -0.17403986 -0.17454286 -0.3897847 -0.28993067 -1.0175618
0.14102301 -1.1751995 0.20795088 2.5507214 -0.6650399 -0.6058169 0.97959554 -0.9254919
-0.47157866 0.48826024 -0.44616345 -1.1650468 2.2543466 1.2116369 -0.32429585 0.7012702
0.10935412 0.5011106 2.58611 0.25605294 0.26908547 0.11854817 0.08999533 -0.44611332
-2.537539 -1.0927571 1.5646437 1.4293528 0.93236387 1.3416148 -6.154032 0.9402855
0.24590641 -0.29736036 0.30724633 -0.43192893 -0.22912692 0.4556484 -1.4985948 0.54741657
1.8705637 -0.7187479 -0.41054446 0.4868493 0.1331085 0.931099 0.37382853 0.82566595
0.92397517 -4.8763494 -0.22385289 1.2308683 0.12682006 0.2946001 0.0075590443 0.16242288
-0.1501584 -0.96005094 -0.05617702 0.0514698 -0.8448303 0.033802286 -0.6047634 2.067991
-0.565662 0.48425493 2.1795037 0.82061964 -0.2738619 -2.913451 -0.7296737 0.22627236
-0.35995665 0.20535909 0.018055476 -0.8927853 -0.20621742 0.14857398 -0.8851695 0.024763871
00000000: 20e3 f13e 3506 39be 7a4d 10be ef94 1a40
00000010: 4aa7 b3be 902e d4bf 832b 5b3f ce55 b2be
00000020: c4f5 72be 5e2d 7d3e a283 0f3f d10b 303f
00000030: e6ce fabd 7411 fbbd 3640 983e 053f 18bf
00000040: 7265 13bf 34ba 0bbe 7dbf 97bf f753 1ebf
00000050: 046b f43d e53a dcbf db1c 5fbf 2682 8b3e
00000060: d52c d6bf e79b 35bf fbf8 31bd b1af 1bbe
00000070: fc69 23be 166c 6b3e da50 aebd 7897 f6be
00000080: 61db afbd 05ab 7dbe bf75 e6be 4a2a ebbd
00000090: ac77 1dbe b31f 23bf 0942 773f e75e 18c0
000000a0: a959 443f 1eb2 8740 57dd f73d decd 31bf
000000b0: 3e4f b43c fd32 8a3e 52af 733f c215 3a3d
000000c0: fcf0 aa3f 434f 0f3f 5a0f 1bc0 a9c3 b73e
000000d0: ffd1 cf3e 873d 6dbf bace 76bd a7e2 80be
000000e0: aa2c 04be 0ef2 04be fe3e abbe 8137 32be
000000f0: 5dbb 32be dc91 c7be cb71 94be 773f 82bf
00000100: 5668 103e f06c 96bf 13f1 543e 053f 2340
00000110: 0e40 2abf d116 1bbf c6c6 7a3f 0aed 6cbf
00000120: c272 f1be 3ffd f93e 896f e4be 4120 95bf
00000130: 3747 1040 eb16 9b3f 1b0a a6be 7286 333f
00000140: 0ef5 df3d c948 003f d482 2540 5f19 833e
00000150: 92c5 893e 62c9 f23d 794f b83d f768 e4be
00000160: 0a67 22c0 77df 8bbf 3f46 c83f 08f5 b63f
00000170: 66af 6e3f 09ba ab3f d5ed c4c0 8db6 703f
00000180: e4ce 7b3e 9e3f 98be 644f 9d3e ca25 ddbe
00000190: 3fa0 6abe bf4a e93e f4d1 bfbf 7e23 0c3f
000001a0: a26e ef3f ddff 37bf e232 d2be 5044 f93e
000001b0: 984d 083e 815c 6e3f 7466 bf3e d85e 533f
000001c0: a389 6c3f 0e0b 9cc0 b139 65be 188d 9d3f
000001d0: 1edd 013e d3d5 963e dcb1 f73b 2f52 263e
000001e0: 20c3 19be e6c5 75bf e019 66bd ffd1 523d
000001f0: cc46 58bf 4474 0a3d c6d1 1abf f759 0440
00000200: 3acf 10bf 43f0 f73e fd7c 0b40 2114 523f
00000210: a137 8cbe fb75 3ac0 e5cb 3abf f1b3 673e
00000220: 3d4c b8be a749 523e 14e9 933c 948d 64bf
00000230: a92a 53be c723 183e 789a 62bf 9add ca3c

1058 f4 [16]
0.057237756 -0.0065419655 -0.039607167 0.0454866 0.00026004948 0.05714628 -0.0045777103 0.0703488
0.014022339 0.10236647 0.09810429 0.11598532 0.05562589 0.12466987 0.10912888 0.19556125
00000000: 2372 6a3d fc5d d6bb 203b 22bd 2850 3a3d
00000010: 4057 8839 3812 6a3d 9e00 96bb 0813 903d
00000020: f4bd 653c 83a5 d13d e7ea c83d b689 ed3d
00000030: f9d7 633d eb52 ff3d f67e df3d 3541 483e

1060 f4 [16, 1, 3, 3]
0.0 -0.0 -0.0 -0.0 -0.0 0.0 0.0 0.0
-0.0 -0.09130804 0.73802406 0.24793987 0.35359058 1.7288506 0.72176385 -0.0031844429
2.0043933 0.61219126 -0.17753047 -0.017384145 0.11468921 2.6516933 -10.306891 2.1665509
1.2562513 3.2863388 1.3560352 0.0 0.0 0.0 0.0 0.0
-0.0 0.0 -0.0 -0.0 0.57375807 0.8357339 0.19990137 -1.6959496
-1.436766 1.178553 -0.2590603 0.35207644 0.42325246 -1.5160904 -1.6713877 -0.20736338
-0.87270147 -1.4369289 -0.43070108 -0.9666536 -1.075184 -0.5016483 0.62567735 0.45292035
0.18602893 0.6301971 1.5670471 1.4296879 0.18045852 0.80863404 0.51512825 -0.38376728
2.982077 0.7215435 0.16180195 8.006538 1.3373768 -1.3519552 1.5190792 -1.6688327
-0.9276907 1.590897 0.74421877 -2.423367 1.1031402 0.12706849 -1.9744022 0.98141646
1.0193439 0.8019415 0.7957901 0.7370824 0.474569 -0.08041311 0.20100757 -0.24738273
-0.6058406 -0.26978445 -0.96984524 -2.6231184 -0.5183031 0.72654575 -1.5851977 1.2302276
1.1307336 4.8088 1.0811334 1.0228862 1.347604 1.1871686 -1.0982039 -1.0447612
-0.6429005 -0.51082957 -0.6946452 -0.6499246 1.3039846 0.49309984 0.46374944 -3.8313756
-0.26524243 1.3626356 0.35767373 0.12320966 0.3862629 -0.59635526 -0.4365781 -0.20262825
3.0033264 1.014768 -2.147264 0.91526854 -0.06659179 -0.9170889 3.3260272e-05 -2.674379e-05
2.514073e-05 2.081394e-05 -1.63227e-05 3.181864e-05 1.120784e-05 -2.5932868e-05 1.2805929e-05 -0.5530762
-1.309293 0.28927362 -1.0734031 -3.8717234 -0.57277656 -0.17829403 -2.497639 -0.0995035
00000000: 0000 0000 0000 0080 0000 0080 0000 0080
00000010: 0000 0080 0000 0000 0000 0000 0000 0000
00000020: 0000 0080 b6ff babd 25ef 3c3f f3e3 7d3e
00000030: d309 b53e fa4a dd3f 84c5 383f 16b2 50bb
00000040: fb47 0040 91b8 1c3f 8cca 35be 3269 8ebc
00000050: 2de2 ea3d 58b5 2940 07e9 24c1 c5a8 0a40
00000060: d8cc a03f 6053 5240 9092 ad3f 0000 0000
00000070: 0000 0000 0000 0000 0000 0000 0000 0000
00000080: 0000 0080 0000 0000 0000 0080 0000 0080
00000090: cfe1 123f a8f2 553f f2b2 4c3e e014 d9bf
000000a0: f3e7 b7bf d3da 963f 8da3 84be 5d43 b43e
000000b0: 8cb4 d83e 400f c2bf 08f0 d5bf 1157 54be
000000c0: 5d69 5fbf 49ed b7bf da84 dcbe 9c76 77bf
000000d0: a19f 89bf 066c 00bf 642c 203f 2de5 e73e
000000e0: 5e7e 3e3e 9954 213f 0095 c83f 0300 b73f
000000f0: 1eca 383e a402 4f3f 72df 033f 257d c4be
00000100: 59da 3e40 13b7 383f 69af 253e c81a 0041
00000110: 2a2f ab3f de0c adbf 3071 c23f 4f9c d5bf
00000120: 237d 6dbf 83a2 cb3f 1f85 3e3f 7218 1bc0
00000130: b333 8d3f 3e1e 023e 36b9 fcbf 1c3e 7b3f
00000140: dc79 823f 0a4c 4d3f e6b8 4b3f 6fb1 3c3f
00000150: b5fa f23e a1af a4bd eed4 4d3e e651 7dbe
00000160: 5f18 1bbf 3021 8abe c747 78bf 2ce1 27c0
00000170: 83af 04bf e7fe 393f c2e7 cabf 1978 9d3f
00000180: e1bb 903f b1e1 9940 9462 8a3f efed 823f
00000190: 4a7e ac3f 24f5 973f f291 8cbf bcba 85bf
000001a0: 2195 24bf bac5 02bf 45d4 31bf 7561 26bf
000001b0: f8e8 a63f 9577 fc3e 9170 ed3e 4235 75c0
000001c0: dbcd 87be d86a ae3f 0321 b73e 5955 fc3d
000001d0: 40c4 c53e bdaa 18bf 2a87 dfbe c87d 4fbe
000001e0: 8036 4040 ebe3 813f c66c 09c0 0a4f 6a3f
000001f0: 4761 88bd 57c6 6abf f280 0b38 da57 e0b7
00000200: 4ee5 d237 9999 ae37 bbec 88b7 0175 0538
00000210: 4e09 3c37 698a d9b7 0cd9 5637 6796 0dbf
00000220: ea96 a7bf ac1b 943e 4665 89bf 51ca 77c0
00000230: 7ca1 12bf b692 36be 51d9 1fc0 7ec8 cbbd

1061 f4 [16]
-0.0010818725 0.11209178 0.23586589 -0.0005641546 0.68795264 0.10753441 0.018339392 0.5544876
0.001288462 0.06863198 -0.008102614 0.0054957587 0.09431815 0.12811841 0.0014820863 0.08457026
00000000: 9ecd 8dba 6090 e53d d486 713e c6e3 13ba
00000010: aa1d 303f 003b dc3d 7e3c 963c e6f2 0d3f
00000020: 9ce1 a83a ec8e 8c3d d4c0 04bc c415 b43b
00000030: e029 c13d 7931 033e 9042 c23a 2c33 ad3d

1063 f4 [16, 1, 3, 3]
-0.43325898 0.07179658 0.21270816 -2.6147213 0.76677066 1.4268115 -0.31953257 0.6760467
0.4396537 -0.18007636 0.28287864 -0.12043244 0.2723278 0.8096136 0.30187678 -0.22451752
0.19719219 -0.1458948 0.18672596 -1.0085036 0.1979399 -0.19031236 -1.6030029 -0.39898297
0.11670757 -1.0566648 0.15686378 -0.5419887 -1.5161188 -0.5001554 -0.023827724 -0.19550894
0.0010769301 0.5864195 1.6616929 0.70363796 -0.6714004 0.16963337 -0.5699611 -0.6143088
0.5691983 -0.48098114 -1.011514 -0.13073339 -0.85325736 0.7611981 0.31886998 0.6559791
0.26568234 -0.43499404 0.09597127 0.5441084 -0.34131977 0.29518512 -0.4782422 -2.2937481
-0.6777495 0.43802086 0.11752651 0.3526011 0.22764929 1.8505827 0.4902886 -0.5956884
-1.9852952 -0.7189613 0.011729377 -0.083360255 0.07777535 0.6835701 1.8330654 0.8430077
0.2719431 -0.7256381 0.8772932 0.13523702 -3.7016141 1.1143006 0.27365327 -1.0704397
0.8356771 0.0 -0.0 -0.0 -0.0 0.0 0.0 0.0
0.0 0.0 0.79623425 -0.19237441 -0.88291 1.633519 0.00212506 -1.3606114
0.76212436 0.03186485 -0.65522003 1.0598128 1.3894722 1.7266706 -0.8714611 -0.7321102
-0.34439644 -1.6713513 -2.1214225 -1.1372849 -1.1523087 -0.24234311 -0.4799269 0.49450237
1.2786165 1.1178633 0.63742036 1.2786622 0.8826121 0.17432821 -0.56561226 0.08906171
0.15940997 -1.4258384 -0.3763391 0.52197343 -0.25203776 0.29288185 0.48364532 0.528467
-0.8904356 1.1997166 0.5608417 -1.9937829 0.38619944 0.4620671 -0.8319605 0.49181357
-0.81465995 0.5394127 -0.25601766 -1.7447062 -0.33468482 0.48292726 -0.38009542 0.26102608
00000000: 1fd4 ddbe 160a 933d 2bd0 593e 9857 27c0
00000010: 154b 443f c2a1 b63f c699 a3be 6611 2d3f
00000020: 4a1a e13e f065 38be 78d5 903e 48a5 f6bd
00000030: 8d6e 8b3e d642 4f3f 988f 9a3e ece7 65be
00000040: c0ec 493e 7265 15be 1735 3f3e a516 81bf
00000050: c2b0 4a3e 3ee1 42be 332f cdbf 7f47 ccbe
00000060: 6104 ef3d cb40 87bf e6a0 203e c5bf 0abf
00000070: 2e10 c2bf 2f0a 00bf 5c32 c3bc 7f33 48be
00000080: c727 8d3a 971f 163f 5ab2 d43f 9e21 343f
00000090: e6e0 2bbf 5fb4 2d3e f8e8 11bf 5743 1dbf
000000a0: fbb6 113f 2943 f6be 4a79 81bf f9de 05be
000000b0: 136f 5abf e1dd 423f ed42 a33e 3fee 273f
000000c0: 8407 883e 8ab7 debe 968c c43d b04a 0b3f
000000d0: 77c1 aebe 8122 973e 29dc f4be c5cc 12c0
000000e0: fe80 2dbf 4544 e03e bdb1 f03d 2288 b43e
000000f0: e51c 693e e5df ec3f 1b07 fb3e 097f 18bf
00000100: 271e febf d90d 38bf 932c 403c c8b8 aabd
00000110: af48 9f3d 73fe 2e3f e3a1 ea3f 5acf 573f
00000120: 203c 8b3e 6bc3 39bf 4a96 603f 937b 0a3e
00000130: 3fe7 6cc0 67a1 8e3f 481c 8c3e 2b04 89bf
00000140: efee 553f 0000 0000 0000 0080 0000 0080
00000150: 0000 0080 0000 0000 0000 0000 0000 0000
00000160: 0000 0000 0000 0000 02d6 4b3f ccfd 44be
00000170: 6406 62bf 2717 d13f 9744 0b3b 8428 aebf
00000180: 951a 433f b884 023d 80bc 27bf f2a7 873f
00000190: 3ada b13f 8b03 dd3f 1318 5fbf 936b 3bbf
000001a0: bb54 b0be d7ee d5bf 63c5 07c0 8d92 91bf
000001b0: da7e 93bf cb28 78be fbb8 f5be 6a2f fd3e
000001c0: b5a9 a33f 2516 8f3f fb2d 233f 34ab a33f
000001d0: def2 613f 1883 323e f7cb 10bf fc65 b63d
000001e0: 5e3c 233e df81 b6bf 85af c0be 0da0 053f
000001f0: 180b 81be 9cf4 953e 5ca0 f73e 9d49 073f
00000200: 96f3 63bf 5090 993f 5293 0f3f 4734 ffbf
00000210: efbb c53e 0f94 ec3e 5dfb 54bf fdce fb3e
00000220: 8e8d 50bf f316 0a3f bf14 83be 8852 dfbf
00000230: cf5b abbe 3e42 f73e de9b c2be 36a5 853e

1064 f4 [16]
-0.0064179804 0.1035673 0.024844013 0.08694569 0.22658412 0.0944461 0.14727114 0.20433114
-0.034622896 -1.0207e-41 0.08266729 -0.15159848 -0.15078881 0.06990843 0.08230448 -0.044415675
00000000: ec4d d2bb 181b d43d ac85 cb3c 9510 b23d
00000010: ab05 683e f56c c13d 3fce 163e 2f3c 513e
00000020: bdd0 0dbd 741c 0080 784d a93d a23c 1bbe
00000030: 6268 1abe 272c 8f3d 408f a83d 36ed 35bd

1066 f4 [16, 1, 3, 3]
0.6101493 -1.649823 1.4000779 -0.91568315 -4.657266 -1.1968542 -0.12451008 -3.4927363
-0.3027172 -0.36678737 0.40776458 1.5513402 -0.20703945 0.32356742 1.5739574 0.8062203
1.147761 0.27423653 0.6243741 0.76888573 -0.649775 0.7352263 1.9037355 0.3264034
0.5270716 1.6402329 0.53022975 -0.6829844 0.0029900346 -0.723843 0.36128902 4.3439403
0.48713312 -0.62412125 2.2930732 -0.60551053 -0.8749074 0.4027579 -0.87119687 0.95536417
5.1771703 1.5653735 -1.1894894 1.569043 -1.5822287 1.6779714 -0.121548384 -1.1178783
2.747427 0.96077394 0.10500716 0.5493379 -0.3715966 -0.19505134 -0.4353435 -0.51149035
1.8702965 1.5179368 -0.08069846 3.89425 0.4893172 -1.0926665 0.68182635 0.9625697
1.668741 0.9805245 -0.15478413 0.5255778 0.39695174 0.7635783 1.631868 1.392378
-1.8774143 0.117529415 1.0510826 -1.8230081 0.42231306 1.2137393 -0.88216 0.53642124
0.84494084 0.50776947 1.2104422 1.4164702 0.072729774 0.7430192 0.38479662 0.8904768
1.1198678 0.78549224 0.732586 -0.33342052 0.40413126 -0.9744737 -2.7027564 -1.5158839
-0.15893805 -0.2735097 0.14567295 0.24855216 -0.75228703 -0.05553318 -0.41848284 -1.623659
-0.7518486 -0.39490798 -1.0771091 -0.144225 -0.037848037 0.6601004 -0.20844465 1.1675639
2.3389695 0.88997513 -0.36989266 0.9658993 -0.64583385 -0.15370436 -1.1044996 0.07603406
-1.0910987 -2.6152642 -0.8042549 -0.16920276 -1.4032676 0.30332834 1.5878142 -2.1126375
1.5748256 -1.3694432 -6.2046595 -2.513044 2.9358177 1.3881948 2.9253101 0.08902736
0.6799415 0.43715072 0.024674274 2.6032903 0.4288084 0.0047110026 0.11324784 -0.03478827
00000000: bf32 1c3f 662d d3bf c135 b33f 366a 6abf
00000010: 5308 95c0 8532 99bf 24ff febd fe88 5fc0
00000020: c0fd 9abe 8ecb bbbe 85c6 d03e 5192 c63f
00000030: 2602 54be a1aa a53e 7077 c93f 7464 4e3f
00000040: d5e9 923f bb68 8c3e fbd6 1f3f b2d5 443f
00000050: a857 26bf ca37 3c3f 9bad f33f 591e a73e
00000060: 2aee 063f 27f3 d13f 23bd 073f 11d8 2ebf
00000070: 75f4 433b c64d 39bf e0fa b83e 8f01 8b40
00000080: 8369 f93e 69c6 1fbf b6c1 1240 bd02 1bbf
00000090: eef9 5fbf 4936 ce3e c206 5fbf bf92 743f
000000a0: 61ab a540 295e c83f 3041 98bf 67d6 c83f
000000b0: 7886 cabf c4c7 d63f 5cee f8bd a316 8fbf
000000c0: d8d5 2f40 48f5 753f fe0d d73d 69a1 0c3f
000000d0: e941 bebe 8abb 47be 58e5 debe 08f1 02bf
000000e0: e065 ef3f c14b c23f 3c45 a5bd 643b 7940
000000f0: c987 fa3e 7fdc 8bbf 2c8c 2e3f f86a 763f
00000100: 4e99 d53f a703 7b3f bb7f 1ebe 448c 063f
00000110: 423d cb3e de79 433f 0de1 d03f 7139 b23f
00000120: 1d4f f0bf 43b3 f03d e089 863f 5458 e9bf
00000130: 6b39 d83e cf5b 9b3f 3dd5 61bf e752 093f
00000140: 0b4e 583f 2efd 013f c5ef 9a3f e54e b53f
00000150: 59f3 943d 8236 3e3f 1004 c53e 4af6 633f
00000160: d457 8f3f 0516 493f c28a 3b3f 18b6 aabe
00000170: 4bea ce3e 1c77 79bf f6f9 2cc0 7c08 c2bf
00000180: a8c0 22be 7709 8cbe 4a2b 153e 7584 7e3e
00000190: e295 40bf c276 63bd 6243 d6be 0fd4 cfbf
000001a0: 2679 40bf 6131 cabe b6de 89bf b8af 13be
000001b0: 8b06 1bbd 57fc 283f 8472 55be bc72 953f
000001c0: adb1 1540 69d5 633f 9262 bdbe 2d45 773f
000001d0: 5e55 25bf ad64 1dbe 3e60 8dbf bfb7 9b3d
000001e0: 1fa9 8bbf 7d60 27c0 a6e3 4dbf 7d43 2dbe
000001f0: 469e b3bf da4d 9b3e 7f3d cb3f 7435 07c0
00000200: e393 c93f ea49 afbf 928c c6c0 b7d5 20c0
00000210: 70e4 3b40 5eb0 b13f 4838 3b40 fa53 b63d
00000220: a510 2e3f 38d2 df3e b421 ca3c 4f9c 2640
00000230: c68c db3e c15e 9a3b 7cee e73d 257e 0ebd

1067 f4 [16]
0.18666163 0.017875347 -0.011025261 -0.047710918 0.23362358 0.049332216 0.039815668 0.120678574
-0.010496147 -0.15746301 0.203612 0.1388332 -0.0886292 0.18001339 -0.023402773 0.14617696
00000000: 3a24 3f3e 526f 923c 4ca3 34bc 866c 43bd
00000010: 053b 6f3e 9410 4a3d c115 233d 5426 f73d
00000020: 08f8 2bbc fc3d 21be aa7f 503e 4a2a 0e3e
00000030: 3a83 b5bd 6e55 383e 2cb7 bfbc 6aaf 153e

1069 f4 [16, 1, 3, 3]
0.7091749 2.9614396 -0.06778779 1.8373327 5.3785152 1.3483564 -0.998307 2.7595005
-0.5337989 -0.11427965 1.457862 -0.07175573 0.4641802 3.3648808 0.6530944 -0.042517625
1.1898342 0.019490557 -0.09205055 0.13988385 0.22563036 0.43166417 0.6374797 0.71652323
0.052203324 0.27615127 0.36829957 -0.0 -0.0 -0.0 0.0 0.0
0.0 0.0 0.0 0.0 -0.4749338 -0.60164887 -0.43091395 0.14099702
0.12666988 0.28728065 0.31892747 0.53435284 0.5492636 1.1655313 4.4702835 -0.18061371
1.9202777 5.885639 2.0805624 -0.32060888 3.0894303 -0.115938306 0.4535589 0.35110155
-0.5083881 2.2258556 1.0061972 -0.49543855 2.4589803 0.78287023 -0.7005965 -0.10803403
0.45166865 0.9354063 -1.2815359 -1.5761669 -0.6438803 -1.194459 -1.5039196 -0.8697309
-0.20983325 -0.046709683 0.19506525 0.5584364 0.33686498 0.5086812 0.39455226 0.2904017
0.46283993 0.0 -0.0 -0.0 0.0 -0.0 0.0 -0.0
-0.0 -0.0 -5.423328e-06 -9.153733e-06 -1.0823836e-05 9.471059e-07 -1.9595677e-06 -2.1225258e-06
1.2135204e-07 -1.368254e-06 -1.0159962e-06 0.6605027 1.436868 0.37863937 0.5140809 2.394704
0.5047801 -0.07336555 1.1138662 0.039404817 -0.6359118 -2.3454576 -0.6555416 -0.41008604
0.8428597 -0.39819676 0.95473033 2.1115444 1.042184 -0.0 0.0 0.0
0.0 0.0 0.0 0.0 0.0 0.0 0.0 -0.0
-0.0 -0.0 -0.0 0.0 -0.0 0.0 0.0 0.43902484
-1.5610502 -0.05457457 0.55128163 -1.8300925 -2.7627993 0.64727384 -0.47505778 -2.6476705
00000000: 7c8c 353f 3a88 3d40 53d4 8abd b82d eb3f
00000010: cc1c ac40 f196 ac3f 0c91 7fbf a89b 3040
00000020: 0ba7 08bf 730b eabd 399b ba3f abf4 92bd
00000030: 07a9 ed3e 355a 5740 3231 273f f626 2ebd
00000040: 7d4c 983f a9aa 9f3c 0085 bcbd b63d 0f3e
00000050: a50b 673e 1603 dd3e df31 233f 116e 373f
00000060: 27d3 553d b363 8d3e c391 bc3e 0000 0080
00000070: 0000 0080 0000 0080 0000 0000 0000 0000
00000080: 0000 0000 0000 0000 0000 0000 0000 0000
00000090: 862a f3be a905 1abf c1a0 dcbe 8661 103e
000000a0: c0b5 013e 7316 933e 764a a33e 59cb 083f
000000b0: 8a9c 0c3f 2130 953f 900c 8f40 cdf2 38be
000000c0: a9cb f53f 2857 bc40 ef27 0540 d926 a4be
000000d0: 3ab9 4540 1071 edbd df38 e83e 95c3 b33e
000000e0: b925 02bf 6b74 0e40 12cb 803f 1faa fdbe
000000f0: ef5f 1d40 2f6a 483f 4b5a 33bf f240 ddbd
00000100: 1d41 e73e ca76 6f3f 5e09 a4bf d6bf c9bf
00000110: 57d5 24bf 08e4 98bf 7080 c0bf afa6 5ebf
00000120: 87de 56be a752 3fbd 2fbf 473e b0f5 0e3f
00000130: 9179 ac3e ee38 023f c102 ca3e 88af 943e
00000140: 5bf9 ec3e 0000 0000 0000 0080 0000 0080
00000150: 0000 0000 0000 0080 0000 0000 0000 0080
00000160: 0000 0080 0000 0080 08fa b5b6 fc92 19b7
00000170: 0698 35b7 9f3c 7e35 1e81 03b6 b770 0eb6
00000180: ff4c 0234 d9a4 b7b5 5d5d 88b5 b416 293f
00000190: 4aeb b73f 05dd c13e ce9a 033f d542 1940
000001a0: 4539 013f ad40 96bd 2b93 8e3f f266 213d
000001b0: 1ecb 22bf fa1b 16c0 93d1 27bf ccf6 d1be
000001c0: a7c5 573f 72e0 cbbe 3569 743f 8b23 0740
000001d0: 4966 853f 0000 0080 0000 0000 0000 0000
000001e0: 0000 0000 0000 0000 0000 0000 0000 0000
000001f0: 0000 0000 0000 0000 0000 0000 0000 0080
00000200: 0000 0080 0000 0080 0000 0080 0000 0000
00000210: 0000 0080 0000 0000 0000 0000 ddc7 e03e
00000220: 7ed0 c7bf 9689 5fbd cb20 0d3f 7940 eabf
00000230: b4d1 30c0 bdb3 253f c63a f3be 6f73 29c0

1070 f4 [16]
1.0252628 -0.0074380934 0.041917942 -5.9876284e-27 0.12248982 0.17274319 0.0013966947 0.0430878
-0.0027728267 -2.4668413e-14 -4.6329004e-07 0.33259952 0.27044305 -6.8460285e-28 -1.2924558e-38 0.001507279
00000000: d03b 833f 40bb f3bb 26b2 2b3d c431 ed93
00000010: f1db fa3d 97e3 303e 4c11 b73a d57c 303d
00000020: 50b8 35bb 7d31 dea8 19ba f8b4 7c4a aa3e
00000030: 8377 8a3e 95f5 5892 69bc 8c80 e48f c53a

1072 f4 [16, 1, 3, 3]
-0.5864783 0.7163754 0.6807132 -3.846904 0.89435965 2.734065 -1.0476782 0.24961995
0.23023817 0.46370354 0.010487433 -0.20953465 0.6472311 0.054010794 -0.22891912 0.5549246
-0.037788056 -0.31074244 -0.69052047 -0.0147355255 0.75500983 -1.9492402 -0.14340405 2.3526654
-0.8782181 -0.05105949 0.7527444 -0.98179823 0.34051389 0.58041567 -2.6737761 0.73682487
1.659637 -1.1630185 0.5423233 0.7548458 -0.6248108 -1.2391328 -0.33902517 -0.1528363
-0.39125165 0.076676235 -0.021257386 -0.07042703 0.16643189 -0.46522963 -0.051599126 0.0211881
-2.645162 0.10823726 2.8327327 -0.4127026 0.22864383 0.2749208 0.00043674908 -0.014512187
0.0101388395 -0.01567155 -0.01807765 0.013335413 -0.03918762 -0.036644515 0.03263795 1.5361348
-0.45046553 0.12329495 1.2977914 -2.0546582 -1.3745489 0.24724746 -1.3883599 -1.0340592
1.614966 1.9586884 1.532156 -0.104229815 -0.0044116443 -0.015161029 -1.6012651 -2.1338954
-1.6179211 1.6312722 0.065183744 0.69907695 1.2502844 -4.5804152 -0.56252563 2.3099625
-2.087493 0.82782376 1.3323522 0.47400618 1.03939 -0.35739815 -6.169707 2.8581178
0.32671827 -0.2064304 0.6240386 0.0 0.0 0.0 -0.0 0.0
-0.0 -0.0 0.0 0.0 3e-45 -2.51e-42 -1.0902439e-36 0.0
-0.0 -3.70854e-40 1.72047e-40 9.74418e-39 1.0938067e-35 6.047761e-05 -0.0008384117 -0.0007178893
0.0010218903 0.00031748766 -0.0017426254 0.0008900033 -3.4775167e-05 -9.5567724e-05 0.0 0.0
0.0 -0.0 0.0 -0.0 0.0 0.0 -0.0 0.620635
-0.2823763 -0.061010595 -0.3997432 -3.7951148 1.1408643 1.7084019 1.3784499 1.2085978
00000000: 7123 16bf 6164 373f 3843 2e3f ad33 76c0
00000010: c1f4 643f ecfa 2e40 521a 86bf 5f9c 7f3e
00000020: 8ec3 6b3e 8d6a ed3e 7bd3 2b3c 4090 56be
00000030: f0b0 253f 6c3a 5d3d c669 6abe 8a0f 0e3f
00000040: a6c7 1abd a219 9fbe f3c5 30bf 466d 71bc
00000050: 5348 413f b480 f9bf 83d8 12be 1292 1640
00000060: e7d2 60bf c123 51bd dbb3 403f 2157 7bbf
00000070: d657 ae3e 1f96 143f 261f 2bc0 8ea0 3c3f
00000080: fc6e d43f cadd 94bf b3d5 0a3f 933d 413f
00000090: 9af3 1fbf e79b 9ebf b594 adbe 1e81 1cbe
000000a0: 2352 c8be 6e08 9d3d f823 aebc 0c3c 90bd
000000b0: 1f6d 2a3e 9432 eebe 9b59 53bd ab92 ad3c
000000c0: 564a 29c0 7fab dd3d 7e4b 3540 c14d d3be
000000d0: 9c21 6a3e 6bc2 8c3e 78fb e439 86c4 6dbc
000000e0: 601d 263c 9f61 80bc 9417 94bc c77c 5a3c
000000f0: 3383 20bd 8f18 16bd 5faf 053d 11a0 c43f
00000100: 6ba3 e6be 1082 fc3d 071e a63f 857f 03c0
00000110: 38f1 afbf 702e 7d3e c7b5 b1bf 0d5c 84bf
00000120: 35b7 ce3f 4db6 fa3f b01d c43f 7176 d5bd
00000130: 8e8f 90bb f765 78bc 41f6 ccbf be91 08c0
00000140: 0a18 cfbf 87cd d03f 0e7f 853d b5f6 323f
00000150: 5209 a03f c392 92c0 ae01 10bf 6dd6 1340
00000160: 7c99 05c0 42ec 533f 848a aa3f f0b0 f23e
00000170: bb0a 853f e4fc b6be 3d6e c5c0 67eb 3640
00000180: 9e47 a73e 7e62 53be fec0 1f3f 0000 0000
00000190: 0000 0000 0000 0000 0000 0080 0000 0000
000001a0: 0000 0080 0000 0080 0000 0000 0000 0000
000001b0: 0200 0000 ff06 0080 d27e b983 0000 0000
000001c0: 0000 0080 ca09 0480 99df 0100 cf1a 6a00
000001d0: 80a0 6805 57a9 7d38 dbc8 5bba bc30 3cba
000001e0: f3f0 853a 7974 a639 ce68 e4ba 1c4f 693a
000001f0: 8ddb 11b8 886b c8b8 0000 0000 0000 0000
00000200: 0000 0000 0000 0080 0000 0000 0000 0080
00000210: 0000 0000 0000 0000 0000 0080 efe1 1e3f
00000220: a093 90be 3fe6 79bd 24ab ccbe 29e3 72c0
00000230: d707 923f eaac da3f 0c71 b03f 55b3 9a3f

1073 f4 [16]
0.06824455 -0.0036942877 0.11113683 0.06824376 -0.08227261 0.14739685 0.00811526 0.066952005
0.059868783 0.018209012 0.047637068 -2.660366e-32 -0.0003708038 0.0032436892 -5.206805e-11 0.03921474
00000000: ccc3 8b3d dd1b 72bb b59b e33d 62c3 8b3d
00000010: 8b7e a8bd 33ef 163e def5 043c 221e 893d
00000020: f838 753d 112b 953c 161f 433d 5422 0a8b
00000030: 7268 c2b9 1394 543b 6aff 64ae a39f 203d

1075 f4 [16, 1, 3, 3]
0.12481376 -0.025887467 -0.6094074 1.5693047 0.34014907 -1.5473372 1.0107474 0.19903362
-1.0761784 0.5311279 -0.4938151 0.034840375 1.5610957 -0.7963323 -1.2692894 0.73715395
-0.14655091 -0.4303961 -0.87742335 -1.1813941 -0.8920117 0.6799782 -0.11026054 0.5120594
-1.3311905 -1.7023603 -1.2205182 -0.46542767 -0.35650605 -0.28384027 2.0238523 2.7542992
0.6113381 0.43244588 0.95640457 -0.87435305 0.24841279 0.03662378 0.10345752 -0.4836432
0.047738772 1.2278085 -0.5234107 -0.3680202 0.19560646 1.2141647 -0.39338282 0.5364314
3.0034478 -0.465173 -0.9022244 1.0305319 -0.4086128 0.17566337 -0.84995955 -0.14626159
-1.045556 1.1347731 3.506544 2.191075 -0.26896173 1.347254 0.085164465 -0.052356023
0.9054181 -0.26319185 -0.08225515 -0.32007602 -1.1090748 -0.9836707 -0.31730863 -1.1847389
0.11213713 -1.0333416 -0.5515014 0.31839585 3.5230277 1.8728379 -0.8387372 0.18300684
0.89921063 -0.43154183 -0.83813536 1.0920788 4.357371 -0.31714463 -3.9192197 0.76797366
0.06909637 -1.1579267 0.62487835 0.5374559 0.39182207 -0.52548856 -1.7721443 -0.5964056
0.5240244 0.6022821 0.9628963 -1.3767711 0.690789 -1.2265369 0.018420467 4.4140034
-0.076960236 -1.0968964 1.0993953 -2.1504407 -0.54851025 -0.17403707 -0.73853403 1.8136687
2.7076182 1.5704846 0.52606875 1.1954411 0.46852556 1.4829726 -0.4183061 -1.0576464
-0.91094863 -5.419458 3.0939734 1.091212 -1.6584033 0.19706154 0.025878266 -1.8297646
-0.051683985 0.66287553 2.1046805 1.3651682 0.7930085 1.4961077 0.74841905 0.6203701
1.4066048 0.8745273 0.37606165 2.0947917 -0.48514208 -0.28000942 -2.8546803 -1.6839992
00000000: 5b9e ff3d f411 d4bc 2002 1cbf fade c83f
00000010: 0528 ae3e 250f c6bf 2c60 813f 78cf 4b3e
00000020: 37c0 89bf 00f8 073f 55d5 fcbe c8b4 0e3d
00000030: fcd1 c73f 6fdc 4bbf 1378 a2bf 1fb6 3c3f
00000040: 7111 16be e15c dcbe d19e 60bf ec37 97bf
00000050: e15a 64bf 0d13 2e3f 47d0 e1bd 5316 033f
00000060: 7364 aabf f1e6 d9bf f139 9cbf 894c eebe
00000070: f687 b6be 8353 91be cc86 0140 7046 3040
00000080: a780 1c3f 8c69 dd3e eed6 743f 9ad5 5fbf
00000090: ec5f 7e3e d102 163d 89e1 d33d 15a0 f7be
000000a0: bb89 433d d428 9d3f 3efe 05bf 256d bcbe
000000b0: 0f4d 483e c069 9b3f 7969 c9be 9153 093f
000000c0: 7d38 4040 282b eebe 2ef8 66bf 78e8 833f
000000d0: b235 d1be 19e1 333e f396 59bf 99c5 15be
000000e0: c7d4 85bf 3f40 913f 386b 6040 933a 0c40
000000f0: 5ab5 89be d272 ac3f b56a ae3d 4573 56bd
00000100: 7bc9 673f 15c1 86be 6375 a8bd 01e1 a3be
00000110: 2af6 8dbf d8d1 7bbf 4776 a2be 86a5 97bf
00000120: 27a8 e53d 8a44 84bf 322f 0dbf c804 a33e
00000130: 4979 6140 27b9 ef3f 7bb7 56bf 2566 3b3e
00000140: ab32 663f 0df3 dcbe 0a90 56bf 3dc9 8b3f
00000150: 956f 8b40 c860 a2be 7fd4 7ac0 ec99 443f
00000160: 6682 8d3d f136 94bf 07f8 1f3f b696 093f
00000170: e79c c83e 6b86 06bf a0d5 e2bf 0aae 18bf
00000180: 7726 063f 292f 1a3f 5f80 763f 093a b0bf
00000190: 8cd7 303f 29ff 9cbf 85e6 963c 843f 8d40
000001a0: 549d 9dbd 1a67 8cbf fcb8 8c3f d2a0 09c0
000001b0: 2b6b 0cbf c636 32be 9110 3dbf 4c26 e83f
000001c0: 9e49 2d40 a405 c93f 71ac 063f 3704 993f
000001d0: 95e2 ef3e 0cd2 bd3f 382c d6be f560 87bf
000001e0: ee33 69bf 336c adc0 a903 4640 d6ac 8b3f
000001f0: 8f46 d4bf 80ca 493e a8fe d33c ba35 eabf
00000200: 96b2 53bd 36b2 293f 16b3 0640 d5bd ae3f
00000210: 9b02 4b3f 7580 bf3f 6498 3f3f 93d0 1e3f
00000220: a00b b43f 05e1 5f3f 278b c03e 1111 0640
00000230: 8b64 f8be 655d 8fbe 15b3 36c0 498d d7bf

1076 f4 [16]
0.030291546 0.030542973 0.09117967 0.15885293 0.044625938 0.019842854 -0.0067313127 0.01419192
0.020342115 0.07598968 0.027643546 0.014571533 0.11102498 0.14238672 0.10206133 0.0020678716
00000000: fa25 f83c 4235 fa3c 68bc ba3d 58aa 223e
00000010: b0c9 363d 7b8d a23c 5892 dcbb 3a85 683c
00000020: 82a4 a63c 7aa0 9b3d b874 e23c 70bd 6e3c
00000030: 1161 e33d d3cd 113e 8805 d13d 2185 073b

1078 f4 [16, 1, 3, 3]
2.3747761 -0.69683313 1.0923384 2.504534 0.10133029 2.5315537 0.7445884 0.30849078
0.56575555 0.08019612 0.09562012 0.12161739 0.06429557 0.097736776 0.090998426 0.009402445
0.03703296 0.023457754 -0.84684426 -1.0414768 0.07460667 -1.115072 -2.1685467 -0.4284762
-0.120301396 -1.2517084 0.09572637 0.8599968 0.7672276 -0.77433175 -1.9950744 4.064171
5.2330394 0.61474764 -1.4576875 -1.4435953 -0.13999514 -0.47338253 0.07076032 -2.0922797
-1.4365052 0.9435021 0.23765984 0.11290148 0.45412722 1.097254 1.2402151 0.5926912
-0.19379945 -0.5284049 -0.03381637 -2.830598 -2.683801 -2.3962512 -0.6169788 0.5389738
0.12863515 1.8446571 3.8412228 1.2612015 -1.4764258 0.840385 -0.36003458 -1.0189486
-1.8957207 -2.0977588 -0.30322734 0.45908874 -0.65316993 0.38768896 0.50831133 0.05751794
1.2756371 1.0786867 0.45434755 1.6569368 0.6271213 -0.118192986 -0.0044453177 0.450023
-0.36394432 0.21811536 -1.3066378 0.6947244 -0.03322844 -4.915423 -0.8893827 0.054702323
-3.7411 0.34251937 1.6226712 2.1739044 0.7423138 1.1717731 2.3404727 1.1100419
0.7945109 2.5015028 1.2665685 0.28347015 -0.3978006 0.012388837 -1.292615 -3.5070646
0.35063538 -0.07217562 -3.182702 0.60751057 0.06481146 -0.27413684 -0.71839017 -2.754481
-4.5599656 -1.9762747 0.95491517 0.4207975 0.9020736 1.8456416 -1.2794284 -1.0252155
4.152499 -3.142932 -1.870397 0.81904787 -0.41971353 1.1422926 0.2538881 -1.0099552
-0.12140593 -1.613018 -4.6456184 -1.2532904 0.13926491 -0.8457516 1.2290964 0.86871654
0.6306115 0.594649 -0.37245572 -1.2632657 -0.8256677 0.5670329 -0.10318258 0.058257774
00000000: 55fc 1740 a863 32bf bfd1 8b3f 494a 2040
00000010: 4186 cf3d fa04 2240 589d 3e3f 81f2 9d3e
00000020: 5bd5 103f dd3d a43d 7bd4 c33d 8a12 f93d
00000030: 65ad 833d 382a c83d 625d ba3d b60c 1a3c
00000040: e0af 173d 7a2a c03c c9ca 58bf 1d4f 85bf
00000050: 62cb 983d aeba 8ebf 78c9 0ac0 3c61 dbbe
00000060: 9460 f6bd fb37 a0bf 300c c43d c028 5c3f
00000070: 0769 443f 9b3a 46bf 995e ffbf b00d 8240
00000080: 0f75 a740 1a60 1d3f 8195 babf bbc7 b8bf
00000090: e35a 0fbe 325f f2be c9ea 903d e9e7 05c0
000000a0: 67df b7bf 5b89 713f 1a5d 733e e438 e73d
000000b0: 5d83 e83e d272 8c3f 5ebf 9e3f 9cba 173f
000000c0: 5d73 46be 8b45 07bf 0983 0abd 8528 35c0
000000d0: 65c3 2bc0 2e5c 19c0 53f2 1dbf 30fa 093f
000000e0: efb8 033e b91d ec3f 98d6 7540 0d6f a13f
000000f0: 85fb bcbf 7923 573f 7456 b8be e86c 82bf
00000100: faa6 f2bf ae41 06c0 9d40 9bbe ae0d eb3e
00000110: 2536 27bf 2b7f c63e b120 023f ee97 6b3d
00000120: 1448 a33f 6812 8a3f 3ea0 e83e 8116 d43f
00000130: 068b 203f 2a0f f2bd 07aa 91bb 6a69 e63e
00000140: e956 babe a259 5f3e e83f a7bf 75d9 313f
00000150: 8b1a 08bd 254b 9dc0 96ae 63bf 8b0f 603d
00000160: 2f6e 6fc0 b35e af3e b1b3 cf3f 4021 0b40
00000170: 4708 3e3f a9fc 953f 4eca 1540 da15 8e3f
00000180: 1165 4b3f 9f18 2040 eb1e a23f 0023 913e
00000190: 85ac cbbe 8cfa 4a3c 6974 a5bf bf73 60c0
000001a0: 7b86 b33e d0d0 93bd 64b1 4bc0 d085 1b3f
000001b0: dfbb 843d aa5b 8cbe 6be8 37bf 6b49 30c0
000001c0: 3deb 91c0 92f6 fcbf 5275 743f c572 d73e
000001d0: 4cee 663f fc3d ec3f 4fc4 a3bf 433a 83bf
000001e0: 46e1 8440 cc25 49c0 2b69 efbf 1fad 513f
000001f0: b1e4 d6be a536 923f 9ffd 813e 3646 81bf
00000200: aca3 f8bd 6077 cebf e8a8 94c0 d26b a0bf
00000210: 769b 0e3e 2d83 58bf 0853 9d3f 3564 5e3f
00000220: c16f 213f eb3a 183f 84b2 bebe b1b2 a1bf
00000230: f55e 53bf 1129 113f 6351 d3bd b49f 6e3d

1079 f4 [16]
0.003264578 0.003330651 0.04958988 0.0040726084 -0.0043937988 0.061640583 -0.019783057 0.08997653
0.035939775 0.003545221 0.0190678 0.106193885 -0.038597874 0.00076590246 -0.058856048 0.017689614
00000000: 88f2 553b 0d47 5a3b c21e 4b3d 8473 853b
00000010: dbf9 8fbb d67a 7c3d 1410 a2bc 9d45 b83d
00000020: 9635 133d f056 683b 1334 9c3c 2e7c d93d
00000030: ce18 1ebd d8c6 483a 0a13 71bd cfe9 903c

1081 f4 [16, 1, 3, 3]
-0.0 0.0 0.0 -0.0 -0.0 0.0 0.0 0.0
-0.0 -0.0 -0.0 0.0 0.0 0.0 -0.0 -0.0
0.0 -0.0 -0.22940482 0.030321784 1.139261 -3.2803087 -1.2647344 3.1791518
-0.33978572 0.32306558 0.27475122 0.3583747 2.475247 0.852292 -0.01730435 1.2592862
0.13178785 0.009820092 0.5024559 -0.44123572 -0.0 -0.0 -0.0 0.0
-0.0 -0.0 -0.0 0.0 0.0 0.74871355 -0.119212754 -0.36078948
0.60206705 -0.22319847 -0.7484698 0.5611612 -0.046902306 -0.9051912 0.6785584 -1.6389416
0.44845584 -0.05098935 -5.053097 -0.9910658 -0.34280828 0.36407965 0.050377995 -0.0
-0.0 -0.0 0.0 -0.0 0.0 0.0 -0.0 -0.0
0.08803606 -2.4082835 -0.13067468 0.36121684 -2.3119135 -1.5226098 -0.82464886 -1.0389285
-0.62706417 0.9433804 1.2895024 0.5020849 0.38215736 1.9886788 0.45338577 0.8482388
1.7154932 0.591483 0.6496646 1.3436043 0.9692633 -1.4740865 -4.9679255 -2.9904861
1.0273963 -1.9557507 0.7455684 -2.5693683e-07 -8.595855e-08 -1.1411211e-07 -1.2494144e-07 -4.609453e-08
-6.592689e-08 1.2938379e-07 1.0016276e-07 -4.9834803e-09 0.0 -0.0 -0.0 0.0
-0.0 -0.0 0.0 -0.0 0.0 -0.0 -0.0 -0.0
0.0 0.0 -0.0 -0.0 -0.0 0.0 -0.39880428 0.8933271
-0.20442441 2.195579 3.1476207 1.7682858 0.20900203 0.88315815 0.70800364 -0.0
-0.0 -0.0 0.0 0.0 0.0 -0.0 -0.0 0.0
00000000: 0000 0080 0000 0000 0000 0000 0000 0080
00000010: 0000 0080 0000 0000 0000 0000 0000 0000
00000020: 0000 0080 0000 0080 0000 0080 0000 0000
00000030: 0000 0000 0000 0000 0000 0080 0000 0080
00000040: 0000 0000 0000 0080 19e9 6abe 6465 f83c
00000050: 4ed3 913f 94f0 51c0 d1e2 a1bf 3977 4b40
00000060: 65f8 adbe da68 a53e 31ac 8c3e e47c b73e
00000070: 726a 1e40 cf2f 5a3f dac1 8dbc 4a30 a13f
00000080: 65f3 063e 73e4 203c f3a0 003f a6e9 e1be
00000090: 0000 0080 0000 0080 0000 0080 0000 0000
000000a0: 0000 0080 0000 0080 0000 0080 0000 0000
000000b0: 0000 0000 b1ab 3f3f d125 f4bd 66b9 b8be
000000c0: 1121 1a3f 248e 64be b89b 3fbf 43a8 0f3f
000000d0: a21c 40bd 9cba 67bf 01b6 2d3f d7c8 d1bf
000000e0: 019c e53e 35da 50bd f8b2 a1c0 7db6 7dbf
000000f0: 9184 afbe a668 ba3e 2859 4e3d 0000 0080
00000100: 0000 0080 0000 0080 0000 0000 0000 0080
00000110: 0000 0000 0000 0000 0000 0080 0000 0080
00000120: 404c b43d 5121 1ac0 95cf 05be 6af1 b83e
00000130: 64f6 13c0 e1e4 c2bf 301c 53bf 9cfb 84bf
00000140: 4787 20bf 6181 713f 6a0e a53f a388 003f
00000150: 21aa c33e 078d fe3f 2e22 e83e 2e26 593f
00000160: 4895 db3f 6e6b 173f 6b50 263f 3afb ab3f
00000170: a421 783f deae bcbf 3ff9 9ec0 2064 3fc0
00000180: b981 833f 0a56 fabf 92dd 3e3f 21f1 89b4
00000190: 3698 b8b3 cc0d f5b3 a427 06b4 79f9 45b3
000001a0: b193 8db3 bfec 0a34 0f19 d733 283b abb1
000001b0: 0000 0000 0000 0080 0000 0080 0000 0000
000001c0: 0000 0080 0000 0080 0000 0000 0000 0080
000001d0: 0000 0000 0000 0080 0000 0080 0000 0080
000001e0: 0000 0000 0000 0000 0000 0080 0000 0080
000001f0: 0000 0080 0000 0000 1330 ccbe 16b1 643f
00000200: a254 51be 5e84 0c40 9e72 4940 3057 e23f
00000210: a104 563e a716 623f ba3f 353f 0000 0080
00000220: 0000 0080 0000 0080 0000 0000 0000 0000
00000230: 0000 0000 0000 0080 0000 0080 0000 0000
